{"config": {"layers": [{"config": {"name": "input_1", "dtype": "float32", "sparse": false, "batch_input_shape": [null, 201, 300, 1]}, "name": "input_1", "class_name": "InputLayer", "inbound_nodes": []}, {"config": {"trainable": true, "name": "concatenate", "dtype": "float32", "axis": -1}, "name": "concatenate", "class_name": "Concatenate", "inbound_nodes": [[["input_1", 0, 0, {}], ["input_1", 0, 0, {}], ["input_1", 0, 0, {}]]]}, {"config": {"trainable": true, "padding": [[0, 1], [0, 1]], "name": "conv1_pad", "dtype": "float32", "data_format": "channels_last"}, "name": "conv1_pad", "class_name": "ZeroPadding2D", "inbound_nodes": [[["concatenate", 0, 0, {}]]]}, {"config": {"bias_regularizer": null, "filters": 32, "bias_initializer": {"config": {"dtype": "float32"}, "class_name": "Zeros"}, "name": "conv1", "bias_constraint": null, "trainable": true, "activity_regularizer": null, "dilation_rate": [1, 1], "strides": [2, 2], "activation": "linear", "kernel_size": [3, 3], "kernel_constraint": null, "kernel_regularizer": null, "use_bias": false, "kernel_initializer": {"config": {"seed": null, "dtype": "float32"}, "class_name": "GlorotUniform"}, "data_format": "channels_last", "dtype": "float32", "padding": "valid"}, "name": "conv1", "class_name": "Conv2D", "inbound_nodes": [[["conv1_pad", 0, 0, {}]]]}, {"config": {"epsilon": 0.001, "name": "conv1_bn", "axis": [3], "gamma_constraint": null, "trainable": true, "gamma_regularizer": null, "scale": true, "momentum": 0.99, "beta_regularizer": null, "moving_variance_initializer": {"config": {"dtype": "float32"}, "class_name": "Ones"}, "gamma_initializer": {"config": {"dtype": "float32"}, "class_name": "Ones"}, "center": true, "moving_mean_initializer": {"config": {"dtype": "float32"}, "class_name": "Zeros"}, "dtype": "float32", "beta_initializer": {"config": {"dtype": "float32"}, "class_name": "Zeros"}, "beta_constraint": null}, "name": "conv1_bn", "class_name": "BatchNormalization", "inbound_nodes": [[["conv1", 0, 0, {}]]]}, {"config": {"max_value": 6.0, "threshold": 0.0, "name": "conv1_relu", "trainable": true, "negative_slope": 0.0, "dtype": "float32"}, "name": "conv1_relu", "class_name": "ReLU", "inbound_nodes": [[["conv1_bn", 0, 0, {}]]]}, {"config": {"bias_regularizer": null, "activity_regularizer": null, "padding": "same", "name": "conv_dw_1", "depth_multiplier": 1, "bias_constraint": null, "trainable": true, "use_bias": false, "dilation_rate": [1, 1], "depthwise_constraint": null, "activation": "linear", "kernel_size": [3, 3], "depthwise_initializer": {"config": {"seed": null, "dtype": "float32"}, "class_name": "GlorotUniform"}, "strides": [1, 1], "depthwise_regularizer": null, "bias_initializer": {"config": {"dtype": "float32"}, "class_name": "Zeros"}, "data_format": "channels_last", "dtype": "float32"}, "name": "conv_dw_1", "class_name": "DepthwiseConv2D", "inbound_nodes": [[["conv1_relu", 0, 0, {}]]]}, {"config": {"epsilon": 0.001, "name": "conv_dw_1_bn", "axis": [3], "gamma_constraint": null, "trainable": true, "gamma_regularizer": null, "scale": true, "momentum": 0.99, "beta_regularizer": null, "moving_variance_initializer": {"config": {"dtype": "float32"}, "class_name": "Ones"}, "gamma_initializer": {"config": {"dtype": "float32"}, "class_name": "Ones"}, "center": true, "moving_mean_initializer": {"config": {"dtype": "float32"}, "class_name": "Zeros"}, "dtype": "float32", "beta_initializer": {"config": {"dtype": "float32"}, "class_name": "Zeros"}, "beta_constraint": null}, "name": "conv_dw_1_bn", "class_name": "BatchNormalization", "inbound_nodes": [[["conv_dw_1", 0, 0, {}]]]}, {"config": {"max_value": 6.0, "threshold": 0.0, "name": "conv_dw_1_relu", "trainable": true, "negative_slope": 0.0, "dtype": "float32"}, "name": "conv_dw_1_relu", "class_name": "ReLU", "inbound_nodes": [[["conv_dw_1_bn", 0, 0, {}]]]}, {"config": {"bias_regularizer": null, "filters": 64, "bias_initializer": {"config": {"dtype": "float32"}, "class_name": "Zeros"}, "name": "conv_pw_1", "bias_constraint": null, "trainable": true, "activity_regularizer": null, "dilation_rate": [1, 1], "strides": [1, 1], "activation": "linear", "kernel_size": [1, 1], "kernel_constraint": null, "kernel_regularizer": null, "use_bias": false, "kernel_initializer": {"config": {"seed": null, "dtype": "float32"}, "class_name": "GlorotUniform"}, "data_format": "channels_last", "dtype": "float32", "padding": "same"}, "name": "conv_pw_1", "class_name": "Conv2D", "inbound_nodes": [[["conv_dw_1_relu", 0, 0, {}]]]}, {"config": {"epsilon": 0.001, "name": "conv_pw_1_bn", "axis": [3], "gamma_constraint": null, "trainable": true, "gamma_regularizer": null, "scale": true, "momentum": 0.99, "beta_regularizer": null, "moving_variance_initializer": {"config": {"dtype": "float32"}, "class_name": "Ones"}, "gamma_initializer": {"config": {"dtype": "float32"}, "class_name": "Ones"}, "center": true, "moving_mean_initializer": {"config": {"dtype": "float32"}, "class_name": "Zeros"}, "dtype": "float32", "beta_initializer": {"config": {"dtype": "float32"}, "class_name": "Zeros"}, "beta_constraint": null}, "name": "conv_pw_1_bn", "class_name": "BatchNormalization", "inbound_nodes": [[["conv_pw_1", 0, 0, {}]]]}, {"config": {"max_value": 6.0, "threshold": 0.0, "name": "conv_pw_1_relu", "trainable": true, "negative_slope": 0.0, "dtype": "float32"}, "name": "conv_pw_1_relu", "class_name": "ReLU", "inbound_nodes": [[["conv_pw_1_bn", 0, 0, {}]]]}, {"config": {"trainable": true, "padding": [[0, 1], [0, 1]], "name": "conv_pad_2", "dtype": "float32", "data_format": "channels_last"}, "name": "conv_pad_2", "class_name": "ZeroPadding2D", "inbound_nodes": [[["conv_pw_1_relu", 0, 0, {}]]]}, {"config": {"bias_regularizer": null, "activity_regularizer": null, "padding": "valid", "name": "conv_dw_2", "depth_multiplier": 1, "bias_constraint": null, "trainable": true, "use_bias": false, "dilation_rate": [1, 1], "depthwise_constraint": null, "activation": "linear", "kernel_size": [3, 3], "depthwise_initializer": {"config": {"seed": null, "dtype": "float32"}, "class_name": "GlorotUniform"}, "strides": [2, 2], "depthwise_regularizer": null, "bias_initializer": {"config": {"dtype": "float32"}, "class_name": "Zeros"}, "data_format": "channels_last", "dtype": "float32"}, "name": "conv_dw_2", "class_name": "DepthwiseConv2D", "inbound_nodes": [[["conv_pad_2", 0, 0, {}]]]}, {"config": {"epsilon": 0.001, "name": "conv_dw_2_bn", "axis": [3], "gamma_constraint": null, "trainable": true, "gamma_regularizer": null, "scale": true, "momentum": 0.99, "beta_regularizer": null, "moving_variance_initializer": {"config": {"dtype": "float32"}, "class_name": "Ones"}, "gamma_initializer": {"config": {"dtype": "float32"}, "class_name": "Ones"}, "center": true, "moving_mean_initializer": {"config": {"dtype": "float32"}, "class_name": "Zeros"}, "dtype": "float32", "beta_initializer": {"config": {"dtype": "float32"}, "class_name": "Zeros"}, "beta_constraint": null}, "name": "conv_dw_2_bn", "class_name": "BatchNormalization", "inbound_nodes": [[["conv_dw_2", 0, 0, {}]]]}, {"config": {"max_value": 6.0, "threshold": 0.0, "name": "conv_dw_2_relu", "trainable": true, "negative_slope": 0.0, "dtype": "float32"}, "name": "conv_dw_2_relu", "class_name": "ReLU", "inbound_nodes": [[["conv_dw_2_bn", 0, 0, {}]]]}, {"config": {"bias_regularizer": null, "filters": 128, "bias_initializer": {"config": {"dtype": "float32"}, "class_name": "Zeros"}, "name": "conv_pw_2", "bias_constraint": null, "trainable": true, "activity_regularizer": null, "dilation_rate": [1, 1], "strides": [1, 1], "activation": "linear", "kernel_size": [1, 1], "kernel_constraint": null, "kernel_regularizer": null, "use_bias": false, "kernel_initializer": {"config": {"seed": null, "dtype": "float32"}, "class_name": "GlorotUniform"}, "data_format": "channels_last", "dtype": "float32", "padding": "same"}, "name": "conv_pw_2", "class_name": "Conv2D", "inbound_nodes": [[["conv_dw_2_relu", 0, 0, {}]]]}, {"config": {"epsilon": 0.001, "name": "conv_pw_2_bn", "axis": [3], "gamma_constraint": null, "trainable": true, "gamma_regularizer": null, "scale": true, "momentum": 0.99, "beta_regularizer": null, "moving_variance_initializer": {"config": {"dtype": "float32"}, "class_name": "Ones"}, "gamma_initializer": {"config": {"dtype": "float32"}, "class_name": "Ones"}, "center": true, "moving_mean_initializer": {"config": {"dtype": "float32"}, "class_name": "Zeros"}, "dtype": "float32", "beta_initializer": {"config": {"dtype": "float32"}, "class_name": "Zeros"}, "beta_constraint": null}, "name": "conv_pw_2_bn", "class_name": "BatchNormalization", "inbound_nodes": [[["conv_pw_2", 0, 0, {}]]]}, {"config": {"max_value": 6.0, "threshold": 0.0, "name": "conv_pw_2_relu", "trainable": true, "negative_slope": 0.0, "dtype": "float32"}, "name": "conv_pw_2_relu", "class_name": "ReLU", "inbound_nodes": [[["conv_pw_2_bn", 0, 0, {}]]]}, {"config": {"bias_regularizer": null, "activity_regularizer": null, "padding": "same", "name": "conv_dw_3", "depth_multiplier": 1, "bias_constraint": null, "trainable": true, "use_bias": false, "dilation_rate": [1, 1], "depthwise_constraint": null, "activation": "linear", "kernel_size": [3, 3], "depthwise_initializer": {"config": {"seed": null, "dtype": "float32"}, "class_name": "GlorotUniform"}, "strides": [1, 1], "depthwise_regularizer": null, "bias_initializer": {"config": {"dtype": "float32"}, "class_name": "Zeros"}, "data_format": "channels_last", "dtype": "float32"}, "name": "conv_dw_3", "class_name": "DepthwiseConv2D", "inbound_nodes": [[["conv_pw_2_relu", 0, 0, {}]]]}, {"config": {"epsilon": 0.001, "name": "conv_dw_3_bn", "axis": [3], "gamma_constraint": null, "trainable": true, "gamma_regularizer": null, "scale": true, "momentum": 0.99, "beta_regularizer": null, "moving_variance_initializer": {"config": {"dtype": "float32"}, "class_name": "Ones"}, "gamma_initializer": {"config": {"dtype": "float32"}, "class_name": "Ones"}, "center": true, "moving_mean_initializer": {"config": {"dtype": "float32"}, "class_name": "Zeros"}, "dtype": "float32", "beta_initializer": {"config": {"dtype": "float32"}, "class_name": "Zeros"}, "beta_constraint": null}, "name": "conv_dw_3_bn", "class_name": "BatchNormalization", "inbound_nodes": [[["conv_dw_3", 0, 0, {}]]]}, {"config": {"max_value": 6.0, "threshold": 0.0, "name": "conv_dw_3_relu", "trainable": true, "negative_slope": 0.0, "dtype": "float32"}, "name": "conv_dw_3_relu", "class_name": "ReLU", "inbound_nodes": [[["conv_dw_3_bn", 0, 0, {}]]]}, {"config": {"bias_regularizer": null, "filters": 128, "bias_initializer": {"config": {"dtype": "float32"}, "class_name": "Zeros"}, "name": "conv_pw_3", "bias_constraint": null, "trainable": true, "activity_regularizer": null, "dilation_rate": [1, 1], "strides": [1, 1], "activation": "linear", "kernel_size": [1, 1], "kernel_constraint": null, "kernel_regularizer": null, "use_bias": false, "kernel_initializer": {"config": {"seed": null, "dtype": "float32"}, "class_name": "GlorotUniform"}, "data_format": "channels_last", "dtype": "float32", "padding": "same"}, "name": "conv_pw_3", "class_name": "Conv2D", "inbound_nodes": [[["conv_dw_3_relu", 0, 0, {}]]]}, {"config": {"epsilon": 0.001, "name": "conv_pw_3_bn", "axis": [3], "gamma_constraint": null, "trainable": true, "gamma_regularizer": null, "scale": true, "momentum": 0.99, "beta_regularizer": null, "moving_variance_initializer": {"config": {"dtype": "float32"}, "class_name": "Ones"}, "gamma_initializer": {"config": {"dtype": "float32"}, "class_name": "Ones"}, "center": true, "moving_mean_initializer": {"config": {"dtype": "float32"}, "class_name": "Zeros"}, "dtype": "float32", "beta_initializer": {"config": {"dtype": "float32"}, "class_name": "Zeros"}, "beta_constraint": null}, "name": "conv_pw_3_bn", "class_name": "BatchNormalization", "inbound_nodes": [[["conv_pw_3", 0, 0, {}]]]}, {"config": {"max_value": 6.0, "threshold": 0.0, "name": "conv_pw_3_relu", "trainable": true, "negative_slope": 0.0, "dtype": "float32"}, "name": "conv_pw_3_relu", "class_name": "ReLU", "inbound_nodes": [[["conv_pw_3_bn", 0, 0, {}]]]}, {"config": {"trainable": true, "padding": [[0, 1], [0, 1]], "name": "conv_pad_4", "dtype": "float32", "data_format": "channels_last"}, "name": "conv_pad_4", "class_name": "ZeroPadding2D", "inbound_nodes": [[["conv_pw_3_relu", 0, 0, {}]]]}, {"config": {"bias_regularizer": null, "activity_regularizer": null, "padding": "valid", "name": "conv_dw_4", "depth_multiplier": 1, "bias_constraint": null, "trainable": true, "use_bias": false, "dilation_rate": [1, 1], "depthwise_constraint": null, "activation": "linear", "kernel_size": [3, 3], "depthwise_initializer": {"config": {"seed": null, "dtype": "float32"}, "class_name": "GlorotUniform"}, "strides": [2, 2], "depthwise_regularizer": null, "bias_initializer": {"config": {"dtype": "float32"}, "class_name": "Zeros"}, "data_format": "channels_last", "dtype": "float32"}, "name": "conv_dw_4", "class_name": "DepthwiseConv2D", "inbound_nodes": [[["conv_pad_4", 0, 0, {}]]]}, {"config": {"epsilon": 0.001, "name": "conv_dw_4_bn", "axis": [3], "gamma_constraint": null, "trainable": true, "gamma_regularizer": null, "scale": true, "momentum": 0.99, "beta_regularizer": null, "moving_variance_initializer": {"config": {"dtype": "float32"}, "class_name": "Ones"}, "gamma_initializer": {"config": {"dtype": "float32"}, "class_name": "Ones"}, "center": true, "moving_mean_initializer": {"config": {"dtype": "float32"}, "class_name": "Zeros"}, "dtype": "float32", "beta_initializer": {"config": {"dtype": "float32"}, "class_name": "Zeros"}, "beta_constraint": null}, "name": "conv_dw_4_bn", "class_name": "BatchNormalization", "inbound_nodes": [[["conv_dw_4", 0, 0, {}]]]}, {"config": {"max_value": 6.0, "threshold": 0.0, "name": "conv_dw_4_relu", "trainable": true, "negative_slope": 0.0, "dtype": "float32"}, "name": "conv_dw_4_relu", "class_name": "ReLU", "inbound_nodes": [[["conv_dw_4_bn", 0, 0, {}]]]}, {"config": {"bias_regularizer": null, "filters": 256, "bias_initializer": {"config": {"dtype": "float32"}, "class_name": "Zeros"}, "name": "conv_pw_4", "bias_constraint": null, "trainable": true, "activity_regularizer": null, "dilation_rate": [1, 1], "strides": [1, 1], "activation": "linear", "kernel_size": [1, 1], "kernel_constraint": null, "kernel_regularizer": null, "use_bias": false, "kernel_initializer": {"config": {"seed": null, "dtype": "float32"}, "class_name": "GlorotUniform"}, "data_format": "channels_last", "dtype": "float32", "padding": "same"}, "name": "conv_pw_4", "class_name": "Conv2D", "inbound_nodes": [[["conv_dw_4_relu", 0, 0, {}]]]}, {"config": {"epsilon": 0.001, "name": "conv_pw_4_bn", "axis": [3], "gamma_constraint": null, "trainable": true, "gamma_regularizer": null, "scale": true, "momentum": 0.99, "beta_regularizer": null, "moving_variance_initializer": {"config": {"dtype": "float32"}, "class_name": "Ones"}, "gamma_initializer": {"config": {"dtype": "float32"}, "class_name": "Ones"}, "center": true, "moving_mean_initializer": {"config": {"dtype": "float32"}, "class_name": "Zeros"}, "dtype": "float32", "beta_initializer": {"config": {"dtype": "float32"}, "class_name": "Zeros"}, "beta_constraint": null}, "name": "conv_pw_4_bn", "class_name": "BatchNormalization", "inbound_nodes": [[["conv_pw_4", 0, 0, {}]]]}, {"config": {"max_value": 6.0, "threshold": 0.0, "name": "conv_pw_4_relu", "trainable": true, "negative_slope": 0.0, "dtype": "float32"}, "name": "conv_pw_4_relu", "class_name": "ReLU", "inbound_nodes": [[["conv_pw_4_bn", 0, 0, {}]]]}, {"config": {"bias_regularizer": null, "activity_regularizer": null, "padding": "same", "name": "conv_dw_5", "depth_multiplier": 1, "bias_constraint": null, "trainable": true, "use_bias": false, "dilation_rate": [1, 1], "depthwise_constraint": null, "activation": "linear", "kernel_size": [3, 3], "depthwise_initializer": {"config": {"seed": null, "dtype": "float32"}, "class_name": "GlorotUniform"}, "strides": [1, 1], "depthwise_regularizer": null, "bias_initializer": {"config": {"dtype": "float32"}, "class_name": "Zeros"}, "data_format": "channels_last", "dtype": "float32"}, "name": "conv_dw_5", "class_name": "DepthwiseConv2D", "inbound_nodes": [[["conv_pw_4_relu", 0, 0, {}]]]}, {"config": {"epsilon": 0.001, "name": "conv_dw_5_bn", "axis": [3], "gamma_constraint": null, "trainable": true, "gamma_regularizer": null, "scale": true, "momentum": 0.99, "beta_regularizer": null, "moving_variance_initializer": {"config": {"dtype": "float32"}, "class_name": "Ones"}, "gamma_initializer": {"config": {"dtype": "float32"}, "class_name": "Ones"}, "center": true, "moving_mean_initializer": {"config": {"dtype": "float32"}, "class_name": "Zeros"}, "dtype": "float32", "beta_initializer": {"config": {"dtype": "float32"}, "class_name": "Zeros"}, "beta_constraint": null}, "name": "conv_dw_5_bn", "class_name": "BatchNormalization", "inbound_nodes": [[["conv_dw_5", 0, 0, {}]]]}, {"config": {"max_value": 6.0, "threshold": 0.0, "name": "conv_dw_5_relu", "trainable": true, "negative_slope": 0.0, "dtype": "float32"}, "name": "conv_dw_5_relu", "class_name": "ReLU", "inbound_nodes": [[["conv_dw_5_bn", 0, 0, {}]]]}, {"config": {"bias_regularizer": null, "filters": 256, "bias_initializer": {"config": {"dtype": "float32"}, "class_name": "Zeros"}, "name": "conv_pw_5", "bias_constraint": null, "trainable": true, "activity_regularizer": null, "dilation_rate": [1, 1], "strides": [1, 1], "activation": "linear", "kernel_size": [1, 1], "kernel_constraint": null, "kernel_regularizer": null, "use_bias": false, "kernel_initializer": {"config": {"seed": null, "dtype": "float32"}, "class_name": "GlorotUniform"}, "data_format": "channels_last", "dtype": "float32", "padding": "same"}, "name": "conv_pw_5", "class_name": "Conv2D", "inbound_nodes": [[["conv_dw_5_relu", 0, 0, {}]]]}, {"config": {"epsilon": 0.001, "name": "conv_pw_5_bn", "axis": [3], "gamma_constraint": null, "trainable": true, "gamma_regularizer": null, "scale": true, "momentum": 0.99, "beta_regularizer": null, "moving_variance_initializer": {"config": {"dtype": "float32"}, "class_name": "Ones"}, "gamma_initializer": {"config": {"dtype": "float32"}, "class_name": "Ones"}, "center": true, "moving_mean_initializer": {"config": {"dtype": "float32"}, "class_name": "Zeros"}, "dtype": "float32", "beta_initializer": {"config": {"dtype": "float32"}, "class_name": "Zeros"}, "beta_constraint": null}, "name": "conv_pw_5_bn", "class_name": "BatchNormalization", "inbound_nodes": [[["conv_pw_5", 0, 0, {}]]]}, {"config": {"max_value": 6.0, "threshold": 0.0, "name": "conv_pw_5_relu", "trainable": true, "negative_slope": 0.0, "dtype": "float32"}, "name": "conv_pw_5_relu", "class_name": "ReLU", "inbound_nodes": [[["conv_pw_5_bn", 0, 0, {}]]]}, {"config": {"trainable": true, "padding": [[0, 1], [0, 1]], "name": "conv_pad_6", "dtype": "float32", "data_format": "channels_last"}, "name": "conv_pad_6", "class_name": "ZeroPadding2D", "inbound_nodes": [[["conv_pw_5_relu", 0, 0, {}]]]}, {"config": {"bias_regularizer": null, "activity_regularizer": null, "padding": "valid", "name": "conv_dw_6", "depth_multiplier": 1, "bias_constraint": null, "trainable": true, "use_bias": false, "dilation_rate": [1, 1], "depthwise_constraint": null, "activation": "linear", "kernel_size": [3, 3], "depthwise_initializer": {"config": {"seed": null, "dtype": "float32"}, "class_name": "GlorotUniform"}, "strides": [2, 2], "depthwise_regularizer": null, "bias_initializer": {"config": {"dtype": "float32"}, "class_name": "Zeros"}, "data_format": "channels_last", "dtype": "float32"}, "name": "conv_dw_6", "class_name": "DepthwiseConv2D", "inbound_nodes": [[["conv_pad_6", 0, 0, {}]]]}, {"config": {"epsilon": 0.001, "name": "conv_dw_6_bn", "axis": [3], "gamma_constraint": null, "trainable": true, "gamma_regularizer": null, "scale": true, "momentum": 0.99, "beta_regularizer": null, "moving_variance_initializer": {"config": {"dtype": "float32"}, "class_name": "Ones"}, "gamma_initializer": {"config": {"dtype": "float32"}, "class_name": "Ones"}, "center": true, "moving_mean_initializer": {"config": {"dtype": "float32"}, "class_name": "Zeros"}, "dtype": "float32", "beta_initializer": {"config": {"dtype": "float32"}, "class_name": "Zeros"}, "beta_constraint": null}, "name": "conv_dw_6_bn", "class_name": "BatchNormalization", "inbound_nodes": [[["conv_dw_6", 0, 0, {}]]]}, {"config": {"max_value": 6.0, "threshold": 0.0, "name": "conv_dw_6_relu", "trainable": true, "negative_slope": 0.0, "dtype": "float32"}, "name": "conv_dw_6_relu", "class_name": "ReLU", "inbound_nodes": [[["conv_dw_6_bn", 0, 0, {}]]]}, {"config": {"bias_regularizer": null, "filters": 512, "bias_initializer": {"config": {"dtype": "float32"}, "class_name": "Zeros"}, "name": "conv_pw_6", "bias_constraint": null, "trainable": true, "activity_regularizer": null, "dilation_rate": [1, 1], "strides": [1, 1], "activation": "linear", "kernel_size": [1, 1], "kernel_constraint": null, "kernel_regularizer": null, "use_bias": false, "kernel_initializer": {"config": {"seed": null, "dtype": "float32"}, "class_name": "GlorotUniform"}, "data_format": "channels_last", "dtype": "float32", "padding": "same"}, "name": "conv_pw_6", "class_name": "Conv2D", "inbound_nodes": [[["conv_dw_6_relu", 0, 0, {}]]]}, {"config": {"epsilon": 0.001, "name": "conv_pw_6_bn", "axis": [3], "gamma_constraint": null, "trainable": true, "gamma_regularizer": null, "scale": true, "momentum": 0.99, "beta_regularizer": null, "moving_variance_initializer": {"config": {"dtype": "float32"}, "class_name": "Ones"}, "gamma_initializer": {"config": {"dtype": "float32"}, "class_name": "Ones"}, "center": true, "moving_mean_initializer": {"config": {"dtype": "float32"}, "class_name": "Zeros"}, "dtype": "float32", "beta_initializer": {"config": {"dtype": "float32"}, "class_name": "Zeros"}, "beta_constraint": null}, "name": "conv_pw_6_bn", "class_name": "BatchNormalization", "inbound_nodes": [[["conv_pw_6", 0, 0, {}]]]}, {"config": {"max_value": 6.0, "threshold": 0.0, "name": "conv_pw_6_relu", "trainable": true, "negative_slope": 0.0, "dtype": "float32"}, "name": "conv_pw_6_relu", "class_name": "ReLU", "inbound_nodes": [[["conv_pw_6_bn", 0, 0, {}]]]}, {"config": {"bias_regularizer": null, "activity_regularizer": null, "padding": "same", "name": "conv_dw_7", "depth_multiplier": 1, "bias_constraint": null, "trainable": true, "use_bias": false, "dilation_rate": [1, 1], "depthwise_constraint": null, "activation": "linear", "kernel_size": [3, 3], "depthwise_initializer": {"config": {"seed": null, "dtype": "float32"}, "class_name": "GlorotUniform"}, "strides": [1, 1], "depthwise_regularizer": null, "bias_initializer": {"config": {"dtype": "float32"}, "class_name": "Zeros"}, "data_format": "channels_last", "dtype": "float32"}, "name": "conv_dw_7", "class_name": "DepthwiseConv2D", "inbound_nodes": [[["conv_pw_6_relu", 0, 0, {}]]]}, {"config": {"epsilon": 0.001, "name": "conv_dw_7_bn", "axis": [3], "gamma_constraint": null, "trainable": true, "gamma_regularizer": null, "scale": true, "momentum": 0.99, "beta_regularizer": null, "moving_variance_initializer": {"config": {"dtype": "float32"}, "class_name": "Ones"}, "gamma_initializer": {"config": {"dtype": "float32"}, "class_name": "Ones"}, "center": true, "moving_mean_initializer": {"config": {"dtype": "float32"}, "class_name": "Zeros"}, "dtype": "float32", "beta_initializer": {"config": {"dtype": "float32"}, "class_name": "Zeros"}, "beta_constraint": null}, "name": "conv_dw_7_bn", "class_name": "BatchNormalization", "inbound_nodes": [[["conv_dw_7", 0, 0, {}]]]}, {"config": {"max_value": 6.0, "threshold": 0.0, "name": "conv_dw_7_relu", "trainable": true, "negative_slope": 0.0, "dtype": "float32"}, "name": "conv_dw_7_relu", "class_name": "ReLU", "inbound_nodes": [[["conv_dw_7_bn", 0, 0, {}]]]}, {"config": {"bias_regularizer": null, "filters": 512, "bias_initializer": {"config": {"dtype": "float32"}, "class_name": "Zeros"}, "name": "conv_pw_7", "bias_constraint": null, "trainable": true, "activity_regularizer": null, "dilation_rate": [1, 1], "strides": [1, 1], "activation": "linear", "kernel_size": [1, 1], "kernel_constraint": null, "kernel_regularizer": null, "use_bias": false, "kernel_initializer": {"config": {"seed": null, "dtype": "float32"}, "class_name": "GlorotUniform"}, "data_format": "channels_last", "dtype": "float32", "padding": "same"}, "name": "conv_pw_7", "class_name": "Conv2D", "inbound_nodes": [[["conv_dw_7_relu", 0, 0, {}]]]}, {"config": {"epsilon": 0.001, "name": "conv_pw_7_bn", "axis": [3], "gamma_constraint": null, "trainable": true, "gamma_regularizer": null, "scale": true, "momentum": 0.99, "beta_regularizer": null, "moving_variance_initializer": {"config": {"dtype": "float32"}, "class_name": "Ones"}, "gamma_initializer": {"config": {"dtype": "float32"}, "class_name": "Ones"}, "center": true, "moving_mean_initializer": {"config": {"dtype": "float32"}, "class_name": "Zeros"}, "dtype": "float32", "beta_initializer": {"config": {"dtype": "float32"}, "class_name": "Zeros"}, "beta_constraint": null}, "name": "conv_pw_7_bn", "class_name": "BatchNormalization", "inbound_nodes": [[["conv_pw_7", 0, 0, {}]]]}, {"config": {"max_value": 6.0, "threshold": 0.0, "name": "conv_pw_7_relu", "trainable": true, "negative_slope": 0.0, "dtype": "float32"}, "name": "conv_pw_7_relu", "class_name": "ReLU", "inbound_nodes": [[["conv_pw_7_bn", 0, 0, {}]]]}, {"config": {"bias_regularizer": null, "activity_regularizer": null, "padding": "same", "name": "conv_dw_8", "depth_multiplier": 1, "bias_constraint": null, "trainable": true, "use_bias": false, "dilation_rate": [1, 1], "depthwise_constraint": null, "activation": "linear", "kernel_size": [3, 3], "depthwise_initializer": {"config": {"seed": null, "dtype": "float32"}, "class_name": "GlorotUniform"}, "strides": [1, 1], "depthwise_regularizer": null, "bias_initializer": {"config": {"dtype": "float32"}, "class_name": "Zeros"}, "data_format": "channels_last", "dtype": "float32"}, "name": "conv_dw_8", "class_name": "DepthwiseConv2D", "inbound_nodes": [[["conv_pw_7_relu", 0, 0, {}]]]}, {"config": {"epsilon": 0.001, "name": "conv_dw_8_bn", "axis": [3], "gamma_constraint": null, "trainable": true, "gamma_regularizer": null, "scale": true, "momentum": 0.99, "beta_regularizer": null, "moving_variance_initializer": {"config": {"dtype": "float32"}, "class_name": "Ones"}, "gamma_initializer": {"config": {"dtype": "float32"}, "class_name": "Ones"}, "center": true, "moving_mean_initializer": {"config": {"dtype": "float32"}, "class_name": "Zeros"}, "dtype": "float32", "beta_initializer": {"config": {"dtype": "float32"}, "class_name": "Zeros"}, "beta_constraint": null}, "name": "conv_dw_8_bn", "class_name": "BatchNormalization", "inbound_nodes": [[["conv_dw_8", 0, 0, {}]]]}, {"config": {"max_value": 6.0, "threshold": 0.0, "name": "conv_dw_8_relu", "trainable": true, "negative_slope": 0.0, "dtype": "float32"}, "name": "conv_dw_8_relu", "class_name": "ReLU", "inbound_nodes": [[["conv_dw_8_bn", 0, 0, {}]]]}, {"config": {"bias_regularizer": null, "filters": 512, "bias_initializer": {"config": {"dtype": "float32"}, "class_name": "Zeros"}, "name": "conv_pw_8", "bias_constraint": null, "trainable": true, "activity_regularizer": null, "dilation_rate": [1, 1], "strides": [1, 1], "activation": "linear", "kernel_size": [1, 1], "kernel_constraint": null, "kernel_regularizer": null, "use_bias": false, "kernel_initializer": {"config": {"seed": null, "dtype": "float32"}, "class_name": "GlorotUniform"}, "data_format": "channels_last", "dtype": "float32", "padding": "same"}, "name": "conv_pw_8", "class_name": "Conv2D", "inbound_nodes": [[["conv_dw_8_relu", 0, 0, {}]]]}, {"config": {"epsilon": 0.001, "name": "conv_pw_8_bn", "axis": [3], "gamma_constraint": null, "trainable": true, "gamma_regularizer": null, "scale": true, "momentum": 0.99, "beta_regularizer": null, "moving_variance_initializer": {"config": {"dtype": "float32"}, "class_name": "Ones"}, "gamma_initializer": {"config": {"dtype": "float32"}, "class_name": "Ones"}, "center": true, "moving_mean_initializer": {"config": {"dtype": "float32"}, "class_name": "Zeros"}, "dtype": "float32", "beta_initializer": {"config": {"dtype": "float32"}, "class_name": "Zeros"}, "beta_constraint": null}, "name": "conv_pw_8_bn", "class_name": "BatchNormalization", "inbound_nodes": [[["conv_pw_8", 0, 0, {}]]]}, {"config": {"max_value": 6.0, "threshold": 0.0, "name": "conv_pw_8_relu", "trainable": true, "negative_slope": 0.0, "dtype": "float32"}, "name": "conv_pw_8_relu", "class_name": "ReLU", "inbound_nodes": [[["conv_pw_8_bn", 0, 0, {}]]]}, {"config": {"bias_regularizer": null, "activity_regularizer": null, "padding": "same", "name": "conv_dw_9", "depth_multiplier": 1, "bias_constraint": null, "trainable": true, "use_bias": false, "dilation_rate": [1, 1], "depthwise_constraint": null, "activation": "linear", "kernel_size": [3, 3], "depthwise_initializer": {"config": {"seed": null, "dtype": "float32"}, "class_name": "GlorotUniform"}, "strides": [1, 1], "depthwise_regularizer": null, "bias_initializer": {"config": {"dtype": "float32"}, "class_name": "Zeros"}, "data_format": "channels_last", "dtype": "float32"}, "name": "conv_dw_9", "class_name": "DepthwiseConv2D", "inbound_nodes": [[["conv_pw_8_relu", 0, 0, {}]]]}, {"config": {"epsilon": 0.001, "name": "conv_dw_9_bn", "axis": [3], "gamma_constraint": null, "trainable": true, "gamma_regularizer": null, "scale": true, "momentum": 0.99, "beta_regularizer": null, "moving_variance_initializer": {"config": {"dtype": "float32"}, "class_name": "Ones"}, "gamma_initializer": {"config": {"dtype": "float32"}, "class_name": "Ones"}, "center": true, "moving_mean_initializer": {"config": {"dtype": "float32"}, "class_name": "Zeros"}, "dtype": "float32", "beta_initializer": {"config": {"dtype": "float32"}, "class_name": "Zeros"}, "beta_constraint": null}, "name": "conv_dw_9_bn", "class_name": "BatchNormalization", "inbound_nodes": [[["conv_dw_9", 0, 0, {}]]]}, {"config": {"max_value": 6.0, "threshold": 0.0, "name": "conv_dw_9_relu", "trainable": true, "negative_slope": 0.0, "dtype": "float32"}, "name": "conv_dw_9_relu", "class_name": "ReLU", "inbound_nodes": [[["conv_dw_9_bn", 0, 0, {}]]]}, {"config": {"bias_regularizer": null, "filters": 512, "bias_initializer": {"config": {"dtype": "float32"}, "class_name": "Zeros"}, "name": "conv_pw_9", "bias_constraint": null, "trainable": true, "activity_regularizer": null, "dilation_rate": [1, 1], "strides": [1, 1], "activation": "linear", "kernel_size": [1, 1], "kernel_constraint": null, "kernel_regularizer": null, "use_bias": false, "kernel_initializer": {"config": {"seed": null, "dtype": "float32"}, "class_name": "GlorotUniform"}, "data_format": "channels_last", "dtype": "float32", "padding": "same"}, "name": "conv_pw_9", "class_name": "Conv2D", "inbound_nodes": [[["conv_dw_9_relu", 0, 0, {}]]]}, {"config": {"epsilon": 0.001, "name": "conv_pw_9_bn", "axis": [3], "gamma_constraint": null, "trainable": true, "gamma_regularizer": null, "scale": true, "momentum": 0.99, "beta_regularizer": null, "moving_variance_initializer": {"config": {"dtype": "float32"}, "class_name": "Ones"}, "gamma_initializer": {"config": {"dtype": "float32"}, "class_name": "Ones"}, "center": true, "moving_mean_initializer": {"config": {"dtype": "float32"}, "class_name": "Zeros"}, "dtype": "float32", "beta_initializer": {"config": {"dtype": "float32"}, "class_name": "Zeros"}, "beta_constraint": null}, "name": "conv_pw_9_bn", "class_name": "BatchNormalization", "inbound_nodes": [[["conv_pw_9", 0, 0, {}]]]}, {"config": {"max_value": 6.0, "threshold": 0.0, "name": "conv_pw_9_relu", "trainable": true, "negative_slope": 0.0, "dtype": "float32"}, "name": "conv_pw_9_relu", "class_name": "ReLU", "inbound_nodes": [[["conv_pw_9_bn", 0, 0, {}]]]}, {"config": {"bias_regularizer": null, "activity_regularizer": null, "padding": "same", "name": "conv_dw_10", "depth_multiplier": 1, "bias_constraint": null, "trainable": true, "use_bias": false, "dilation_rate": [1, 1], "depthwise_constraint": null, "activation": "linear", "kernel_size": [3, 3], "depthwise_initializer": {"config": {"seed": null, "dtype": "float32"}, "class_name": "GlorotUniform"}, "strides": [1, 1], "depthwise_regularizer": null, "bias_initializer": {"config": {"dtype": "float32"}, "class_name": "Zeros"}, "data_format": "channels_last", "dtype": "float32"}, "name": "conv_dw_10", "class_name": "DepthwiseConv2D", "inbound_nodes": [[["conv_pw_9_relu", 0, 0, {}]]]}, {"config": {"epsilon": 0.001, "name": "conv_dw_10_bn", "axis": [3], "gamma_constraint": null, "trainable": true, "gamma_regularizer": null, "scale": true, "momentum": 0.99, "beta_regularizer": null, "moving_variance_initializer": {"config": {"dtype": "float32"}, "class_name": "Ones"}, "gamma_initializer": {"config": {"dtype": "float32"}, "class_name": "Ones"}, "center": true, "moving_mean_initializer": {"config": {"dtype": "float32"}, "class_name": "Zeros"}, "dtype": "float32", "beta_initializer": {"config": {"dtype": "float32"}, "class_name": "Zeros"}, "beta_constraint": null}, "name": "conv_dw_10_bn", "class_name": "BatchNormalization", "inbound_nodes": [[["conv_dw_10", 0, 0, {}]]]}, {"config": {"max_value": 6.0, "threshold": 0.0, "name": "conv_dw_10_relu", "trainable": true, "negative_slope": 0.0, "dtype": "float32"}, "name": "conv_dw_10_relu", "class_name": "ReLU", "inbound_nodes": [[["conv_dw_10_bn", 0, 0, {}]]]}, {"config": {"bias_regularizer": null, "filters": 512, "bias_initializer": {"config": {"dtype": "float32"}, "class_name": "Zeros"}, "name": "conv_pw_10", "bias_constraint": null, "trainable": true, "activity_regularizer": null, "dilation_rate": [1, 1], "strides": [1, 1], "activation": "linear", "kernel_size": [1, 1], "kernel_constraint": null, "kernel_regularizer": null, "use_bias": false, "kernel_initializer": {"config": {"seed": null, "dtype": "float32"}, "class_name": "GlorotUniform"}, "data_format": "channels_last", "dtype": "float32", "padding": "same"}, "name": "conv_pw_10", "class_name": "Conv2D", "inbound_nodes": [[["conv_dw_10_relu", 0, 0, {}]]]}, {"config": {"epsilon": 0.001, "name": "conv_pw_10_bn", "axis": [3], "gamma_constraint": null, "trainable": true, "gamma_regularizer": null, "scale": true, "momentum": 0.99, "beta_regularizer": null, "moving_variance_initializer": {"config": {"dtype": "float32"}, "class_name": "Ones"}, "gamma_initializer": {"config": {"dtype": "float32"}, "class_name": "Ones"}, "center": true, "moving_mean_initializer": {"config": {"dtype": "float32"}, "class_name": "Zeros"}, "dtype": "float32", "beta_initializer": {"config": {"dtype": "float32"}, "class_name": "Zeros"}, "beta_constraint": null}, "name": "conv_pw_10_bn", "class_name": "BatchNormalization", "inbound_nodes": [[["conv_pw_10", 0, 0, {}]]]}, {"config": {"max_value": 6.0, "threshold": 0.0, "name": "conv_pw_10_relu", "trainable": true, "negative_slope": 0.0, "dtype": "float32"}, "name": "conv_pw_10_relu", "class_name": "ReLU", "inbound_nodes": [[["conv_pw_10_bn", 0, 0, {}]]]}, {"config": {"bias_regularizer": null, "activity_regularizer": null, "padding": "same", "name": "conv_dw_11", "depth_multiplier": 1, "bias_constraint": null, "trainable": true, "use_bias": false, "dilation_rate": [1, 1], "depthwise_constraint": null, "activation": "linear", "kernel_size": [3, 3], "depthwise_initializer": {"config": {"seed": null, "dtype": "float32"}, "class_name": "GlorotUniform"}, "strides": [1, 1], "depthwise_regularizer": null, "bias_initializer": {"config": {"dtype": "float32"}, "class_name": "Zeros"}, "data_format": "channels_last", "dtype": "float32"}, "name": "conv_dw_11", "class_name": "DepthwiseConv2D", "inbound_nodes": [[["conv_pw_10_relu", 0, 0, {}]]]}, {"config": {"epsilon": 0.001, "name": "conv_dw_11_bn", "axis": [3], "gamma_constraint": null, "trainable": true, "gamma_regularizer": null, "scale": true, "momentum": 0.99, "beta_regularizer": null, "moving_variance_initializer": {"config": {"dtype": "float32"}, "class_name": "Ones"}, "gamma_initializer": {"config": {"dtype": "float32"}, "class_name": "Ones"}, "center": true, "moving_mean_initializer": {"config": {"dtype": "float32"}, "class_name": "Zeros"}, "dtype": "float32", "beta_initializer": {"config": {"dtype": "float32"}, "class_name": "Zeros"}, "beta_constraint": null}, "name": "conv_dw_11_bn", "class_name": "BatchNormalization", "inbound_nodes": [[["conv_dw_11", 0, 0, {}]]]}, {"config": {"max_value": 6.0, "threshold": 0.0, "name": "conv_dw_11_relu", "trainable": true, "negative_slope": 0.0, "dtype": "float32"}, "name": "conv_dw_11_relu", "class_name": "ReLU", "inbound_nodes": [[["conv_dw_11_bn", 0, 0, {}]]]}, {"config": {"bias_regularizer": null, "filters": 512, "bias_initializer": {"config": {"dtype": "float32"}, "class_name": "Zeros"}, "name": "conv_pw_11", "bias_constraint": null, "trainable": true, "activity_regularizer": null, "dilation_rate": [1, 1], "strides": [1, 1], "activation": "linear", "kernel_size": [1, 1], "kernel_constraint": null, "kernel_regularizer": null, "use_bias": false, "kernel_initializer": {"config": {"seed": null, "dtype": "float32"}, "class_name": "GlorotUniform"}, "data_format": "channels_last", "dtype": "float32", "padding": "same"}, "name": "conv_pw_11", "class_name": "Conv2D", "inbound_nodes": [[["conv_dw_11_relu", 0, 0, {}]]]}, {"config": {"epsilon": 0.001, "name": "conv_pw_11_bn", "axis": [3], "gamma_constraint": null, "trainable": true, "gamma_regularizer": null, "scale": true, "momentum": 0.99, "beta_regularizer": null, "moving_variance_initializer": {"config": {"dtype": "float32"}, "class_name": "Ones"}, "gamma_initializer": {"config": {"dtype": "float32"}, "class_name": "Ones"}, "center": true, "moving_mean_initializer": {"config": {"dtype": "float32"}, "class_name": "Zeros"}, "dtype": "float32", "beta_initializer": {"config": {"dtype": "float32"}, "class_name": "Zeros"}, "beta_constraint": null}, "name": "conv_pw_11_bn", "class_name": "BatchNormalization", "inbound_nodes": [[["conv_pw_11", 0, 0, {}]]]}, {"config": {"max_value": 6.0, "threshold": 0.0, "name": "conv_pw_11_relu", "trainable": true, "negative_slope": 0.0, "dtype": "float32"}, "name": "conv_pw_11_relu", "class_name": "ReLU", "inbound_nodes": [[["conv_pw_11_bn", 0, 0, {}]]]}, {"config": {"trainable": true, "padding": [[0, 1], [0, 1]], "name": "conv_pad_12", "dtype": "float32", "data_format": "channels_last"}, "name": "conv_pad_12", "class_name": "ZeroPadding2D", "inbound_nodes": [[["conv_pw_11_relu", 0, 0, {}]]]}, {"config": {"bias_regularizer": null, "activity_regularizer": null, "padding": "valid", "name": "conv_dw_12", "depth_multiplier": 1, "bias_constraint": null, "trainable": true, "use_bias": false, "dilation_rate": [1, 1], "depthwise_constraint": null, "activation": "linear", "kernel_size": [3, 3], "depthwise_initializer": {"config": {"seed": null, "dtype": "float32"}, "class_name": "GlorotUniform"}, "strides": [2, 2], "depthwise_regularizer": null, "bias_initializer": {"config": {"dtype": "float32"}, "class_name": "Zeros"}, "data_format": "channels_last", "dtype": "float32"}, "name": "conv_dw_12", "class_name": "DepthwiseConv2D", "inbound_nodes": [[["conv_pad_12", 0, 0, {}]]]}, {"config": {"epsilon": 0.001, "name": "conv_dw_12_bn", "axis": [3], "gamma_constraint": null, "trainable": true, "gamma_regularizer": null, "scale": true, "momentum": 0.99, "beta_regularizer": null, "moving_variance_initializer": {"config": {"dtype": "float32"}, "class_name": "Ones"}, "gamma_initializer": {"config": {"dtype": "float32"}, "class_name": "Ones"}, "center": true, "moving_mean_initializer": {"config": {"dtype": "float32"}, "class_name": "Zeros"}, "dtype": "float32", "beta_initializer": {"config": {"dtype": "float32"}, "class_name": "Zeros"}, "beta_constraint": null}, "name": "conv_dw_12_bn", "class_name": "BatchNormalization", "inbound_nodes": [[["conv_dw_12", 0, 0, {}]]]}, {"config": {"max_value": 6.0, "threshold": 0.0, "name": "conv_dw_12_relu", "trainable": true, "negative_slope": 0.0, "dtype": "float32"}, "name": "conv_dw_12_relu", "class_name": "ReLU", "inbound_nodes": [[["conv_dw_12_bn", 0, 0, {}]]]}, {"config": {"bias_regularizer": null, "filters": 1024, "bias_initializer": {"config": {"dtype": "float32"}, "class_name": "Zeros"}, "name": "conv_pw_12", "bias_constraint": null, "trainable": true, "activity_regularizer": null, "dilation_rate": [1, 1], "strides": [1, 1], "activation": "linear", "kernel_size": [1, 1], "kernel_constraint": null, "kernel_regularizer": null, "use_bias": false, "kernel_initializer": {"config": {"seed": null, "dtype": "float32"}, "class_name": "GlorotUniform"}, "data_format": "channels_last", "dtype": "float32", "padding": "same"}, "name": "conv_pw_12", "class_name": "Conv2D", "inbound_nodes": [[["conv_dw_12_relu", 0, 0, {}]]]}, {"config": {"epsilon": 0.001, "name": "conv_pw_12_bn", "axis": [3], "gamma_constraint": null, "trainable": true, "gamma_regularizer": null, "scale": true, "momentum": 0.99, "beta_regularizer": null, "moving_variance_initializer": {"config": {"dtype": "float32"}, "class_name": "Ones"}, "gamma_initializer": {"config": {"dtype": "float32"}, "class_name": "Ones"}, "center": true, "moving_mean_initializer": {"config": {"dtype": "float32"}, "class_name": "Zeros"}, "dtype": "float32", "beta_initializer": {"config": {"dtype": "float32"}, "class_name": "Zeros"}, "beta_constraint": null}, "name": "conv_pw_12_bn", "class_name": "BatchNormalization", "inbound_nodes": [[["conv_pw_12", 0, 0, {}]]]}, {"config": {"max_value": 6.0, "threshold": 0.0, "name": "conv_pw_12_relu", "trainable": true, "negative_slope": 0.0, "dtype": "float32"}, "name": "conv_pw_12_relu", "class_name": "ReLU", "inbound_nodes": [[["conv_pw_12_bn", 0, 0, {}]]]}, {"config": {"bias_regularizer": null, "activity_regularizer": null, "padding": "same", "name": "conv_dw_13", "depth_multiplier": 1, "bias_constraint": null, "trainable": true, "use_bias": false, "dilation_rate": [1, 1], "depthwise_constraint": null, "activation": "linear", "kernel_size": [3, 3], "depthwise_initializer": {"config": {"seed": null, "dtype": "float32"}, "class_name": "GlorotUniform"}, "strides": [1, 1], "depthwise_regularizer": null, "bias_initializer": {"config": {"dtype": "float32"}, "class_name": "Zeros"}, "data_format": "channels_last", "dtype": "float32"}, "name": "conv_dw_13", "class_name": "DepthwiseConv2D", "inbound_nodes": [[["conv_pw_12_relu", 0, 0, {}]]]}, {"config": {"epsilon": 0.001, "name": "conv_dw_13_bn", "axis": [3], "gamma_constraint": null, "trainable": true, "gamma_regularizer": null, "scale": true, "momentum": 0.99, "beta_regularizer": null, "moving_variance_initializer": {"config": {"dtype": "float32"}, "class_name": "Ones"}, "gamma_initializer": {"config": {"dtype": "float32"}, "class_name": "Ones"}, "center": true, "moving_mean_initializer": {"config": {"dtype": "float32"}, "class_name": "Zeros"}, "dtype": "float32", "beta_initializer": {"config": {"dtype": "float32"}, "class_name": "Zeros"}, "beta_constraint": null}, "name": "conv_dw_13_bn", "class_name": "BatchNormalization", "inbound_nodes": [[["conv_dw_13", 0, 0, {}]]]}, {"config": {"max_value": 6.0, "threshold": 0.0, "name": "conv_dw_13_relu", "trainable": true, "negative_slope": 0.0, "dtype": "float32"}, "name": "conv_dw_13_relu", "class_name": "ReLU", "inbound_nodes": [[["conv_dw_13_bn", 0, 0, {}]]]}, {"config": {"bias_regularizer": null, "filters": 1024, "bias_initializer": {"config": {"dtype": "float32"}, "class_name": "Zeros"}, "name": "conv_pw_13", "bias_constraint": null, "trainable": true, "activity_regularizer": null, "dilation_rate": [1, 1], "strides": [1, 1], "activation": "linear", "kernel_size": [1, 1], "kernel_constraint": null, "kernel_regularizer": null, "use_bias": false, "kernel_initializer": {"config": {"seed": null, "dtype": "float32"}, "class_name": "GlorotUniform"}, "data_format": "channels_last", "dtype": "float32", "padding": "same"}, "name": "conv_pw_13", "class_name": "Conv2D", "inbound_nodes": [[["conv_dw_13_relu", 0, 0, {}]]]}, {"config": {"epsilon": 0.001, "name": "conv_pw_13_bn", "axis": [3], "gamma_constraint": null, "trainable": true, "gamma_regularizer": null, "scale": true, "momentum": 0.99, "beta_regularizer": null, "moving_variance_initializer": {"config": {"dtype": "float32"}, "class_name": "Ones"}, "gamma_initializer": {"config": {"dtype": "float32"}, "class_name": "Ones"}, "center": true, "moving_mean_initializer": {"config": {"dtype": "float32"}, "class_name": "Zeros"}, "dtype": "float32", "beta_initializer": {"config": {"dtype": "float32"}, "class_name": "Zeros"}, "beta_constraint": null}, "name": "conv_pw_13_bn", "class_name": "BatchNormalization", "inbound_nodes": [[["conv_pw_13", 0, 0, {}]]]}, {"config": {"max_value": 6.0, "threshold": 0.0, "name": "conv_pw_13_relu", "trainable": true, "negative_slope": 0.0, "dtype": "float32"}, "name": "conv_pw_13_relu", "class_name": "ReLU", "inbound_nodes": [[["conv_pw_13_bn", 0, 0, {}]]]}, {"config": {"trainable": true, "name": "global_average_pooling2d", "dtype": "float32", "data_format": "channels_last"}, "name": "global_average_pooling2d", "class_name": "GlobalAveragePooling2D", "inbound_nodes": [[["conv_pw_13_relu", 0, 0, {}]]]}, {"config": {"bias_regularizer": null, "activity_regularizer": null, "bias_initializer": {"config": {"dtype": "float32"}, "class_name": "Zeros"}, "name": "dense", "bias_constraint": null, "trainable": true, "use_bias": true, "kernel_regularizer": null, "activation": "relu", "kernel_constraint": null, "units": 1024, "kernel_initializer": {"config": {"seed": null, "dtype": "float32"}, "class_name": "GlorotUniform"}, "dtype": "float32"}, "name": "dense", "class_name": "Dense", "inbound_nodes": [[["global_average_pooling2d", 0, 0, {}]]]}, {"config": {"bias_regularizer": null, "activity_regularizer": null, "bias_initializer": {"config": {"dtype": "float32"}, "class_name": "Zeros"}, "name": "dense_1", "bias_constraint": null, "trainable": true, "use_bias": true, "kernel_regularizer": null, "activation": "softmax", "kernel_constraint": null, "units": 1251, "kernel_initializer": {"config": {"seed": null, "dtype": "float32"}, "class_name": "GlorotUniform"}, "dtype": "float32"}, "name": "dense_1", "class_name": "Dense", "inbound_nodes": [[["dense", 0, 0, {}]]]}], "input_layers": [["input_1", 0, 0]], "name": "model", "output_layers": [["dense_1", 0, 0]]}, "keras_version": "2.1.6-tf", "class_name": "Model", "backend": "tensorflow"}